.dart_tool/chrome-device/Default/optimization_guide_prediction_model_downloads/44abfe54-bf58-481d-bf42-9e59c674e8b1/model.tflite (tflite, 67216 bytes, 5 tensors)

dnn/hiddenlayer_1/bias/part_0 f4 [64]
000000 97 21 83 3d 7a 5e 21 bd c9 51 d0 3d ab de 88 bc
       0.06402891 -0.03939674 0.10171849 -0.016707739
000010 38 96 13 bd 3b f7 8b bb 31 23 ff bb d6 e2 e1 bc
       -0.03603193 -0.0042714155 -0.0077861776 -0.027573984
000020 be 71 18 3c 73 4f 96 3b dc ba e9 3d 09 52 03 bd
       0.009304462 0.004587108 0.11412594 -0.032060657
000030 b4 9e 86 bd 09 33 da bc 95 ec b8 b9 96 e2 ea bb
       -0.06573239 -0.026635664 -0.00035271482 -0.0071681244
000040 65 8d a2 3d a7 69 d0 3d 60 2e c7 bc 36 04 56 bd
       0.07937125 0.101764016 -0.024314106 -0.05225011
000050 fb 32 a2 3d 9e b4 a4 3b cc 8d 8b bd 55 2a 7a bd
       0.0791988 0.005026414 -0.06814155 -0.061075527
000060 b7 59 31 3d b8 a5 7c bd ad 2a d8 3d 8c 21 d3 bc
       0.04329845 -0.06168148 0.10555015 -0.025772832
000070 b1 ba d8 bc dc ba 28 bb b5 3f c8 bb e7 36 da bc
       -0.026456209 -0.0025746142 -0.00611111 -0.026637508
000080 f2 52 43 bc 61 3e da 38 41 72 9d bc 26 a3 c2 bd
       -0.011921631 0.00010406669 -0.01921952 -0.09503774
000090 43 a1 2b 3c a5 4c 07 bd 04 54 82 3d 02 74 59 bd
       0.0104754595 -0.03303208 0.06363681 -0.05308915
0000a0 49 7b 85 3d bb b3 56 3d a4 a0 85 3d 60 db 8d bd
       0.065176554 0.052417498 0.065247804 -0.06926608
0000b0 b4 f1 b3 bc 1d 89 d1 3d bd 9e 3d 3b 17 1a 82 bc
       -0.021965839 0.102312304 0.0028933727 -0.015881581
0000c0 fc 16 b9 bb a8 54 44 39 4e 1a 7a 3d a8 70 97 3d
       -0.005648492 0.00018723554 0.061060242 0.07394534
0000d0 27 65 21 bc 1a ce d3 bb 6c 6e ec 3b e6 be 88 bd
       -0.009850777 -0.006463778 0.0072153118 -0.06677036
0000e0 97 a9 44 bd 3c 0f ab bd 2e 5b 8a 3d 99 df 09 bc
       -0.048013296 -0.08352515 0.067556724 -0.008415126
0000f0 14 e7 51 3d eb 0a d7 3b 78 a3 33 3d 7f 91 13 bd
       0.051245764 0.006562581 0.043857068 -0.036027428

dnn/hiddenlayer_0/bias/part_0 f4 [128]
000000 cd f1 06 3e a4 bb d3 bc 3e f8 c9 bd 18 75 cd bd
       0.13178177 -0.02584631 -0.098618016 -0.100320995
000010 d9 b8 41 3c db 68 8c 3c ce 61 17 bd 8d 1b 84 3c
       0.011823856 0.017139843 -0.03695851 0.016126418
000020 35 0a f9 bd ef b2 02 3d 70 6e bc 3d 74 7a 7b bc
       -0.1216015 0.031908926 0.09200752 -0.015349019
000030 1a 83 69 bd 48 49 21 bd b6 0b 88 3d bc 0a 08 3d
       -0.057009794 -0.039376527 0.06642859 0.033213362
000040 10 c0 cd bc 42 e7 87 3c 78 a6 2d 3b df f0 3f bc
       -0.025115997 0.016589765 0.0026496928 -0.011715143
000050 33 11 94 bd 6a fb 27 3c 7b 27 03 bd 73 52 bd ba
       -0.07229843 0.010252813 -0.032020073 -0.0014444127
000060 9f 52 30 bb 6a 01 e6 bc d1 9e 7b 3d e0 15 27 bd
       -0.0026904715 -0.028076846 0.061430756 -0.040792346
000070 ea 76 55 3d a8 89 9e bc 3e 34 6d bd 56 d6 0f 3d
       0.05211536 -0.019352749 -0.05791115 0.035116516
000080 99 08 53 bd d6 db 12 bd d5 95 50 3d 7a 1a 1d bd
       -0.05152187 -0.035854183 0.05092414 -0.03835533
000090 79 b9 0b 3d 12 8f 10 bd 62 1a 43 bd 3e d7 8c bd
       0.034112427 -0.035292692 -0.047632582 -0.06876992
0000a0 fe d3 97 bd e7 08 47 bd e5 02 52 bd 94 a7 8c bb
       -0.07413481 -0.048592474 -0.05127229 -0.004292438
0000b0 21 ab fd bc 9c b2 62 bd 55 3c 58 3d 91 44 8a 3c
       -0.03096539 -0.055346116 0.052791912 0.016878398
0000c0 b8 d2 5d bd 3e 87 25 3d 71 56 e9 3a 58 ef ae bc
       -0.054156035 0.04041218 0.0017802251 -0.021354362
0000d0 4e 8d e3 bd a5 b5 ec 3c 08 3d 9b bd 55 56 74 bd
       -0.11110936 0.028895209 -0.0758 -0.059652645
0000e0 42 06 e0 3c f0 04 8c bc 72 ae 66 3c 30 ec 49 3d
       0.027346734 -0.017092198 0.014079677 0.04929751
0000f0 e3 ec f0 3c 8b f7 6b 3a 13 13 e0 bd a4 9e 14 bd
       0.029409831 0.00090014254 -0.10941138 -0.036284104
000100 90 79 91 bb dc 45 7f 3d ac 19 3f bc 3b f0 ec bd
       -0.00443954 0.062322482 -0.0116638355 -0.11569258
000110 1e 04 c3 bc a7 27 e3 bc 63 b2 47 3d 9d 2c 3e bd
       -0.023805674 -0.027728869 0.048754107 -0.046429265
000120 25 48 bb 3b 48 54 73 bd e9 3d 14 be 4b 4e ac 3b
       0.0057153874 -0.05940655 -0.14476742 0.0052583567
000130 03 24 95 3d df 11 c5 bd 98 09 3a 3d e8 19 37 bd
       0.07282259 -0.09622549 0.045419306 -0.04470244
000140 16 d2 4e bc f1 b3 81 bc 3f d7 95 bd 01 fa 0c 3c
       -0.012623331 -0.015832873 -0.073164456 0.008604527
000150 1b 58 25 bd 17 50 36 3d 12 7c 9c bd e0 14 ae 3d
       -0.040367227 0.044509973 -0.07640852 0.08500075
000160 d0 91 dd 3c b8 2e 4c bd 8d be 8e 3d a4 14 0f 3c
       0.027047068 -0.049849242 0.069699384 0.008732948
000170 47 59 6d bb 4d c5 b3 bd 52 a3 33 bd 98 81 35 3d
       -0.0036216544 -0.087778665 -0.043856926 0.044313043
000180 3c 42 fb 3b 02 81 54 3d d0 26 67 bd 11 04 ef bc
       0.007667808 0.051880844 -0.0564335 -0.029176744
000190 84 7a ab bc d9 33 99 bc 77 14 8e 3d f0 ac f9 bc
       -0.020932443 -0.01870148 0.06937497 -0.03047797
0001a0 7d 06 d0 3c a4 07 ae bc 90 05 01 bd 4e 74 11 3d
       0.025393719 -0.021243878 -0.031499445 0.035511307
0001b0 96 b3 95 bc 3b 5f 11 3c ee 11 d2 bd 80 b9 68 bc
       -0.01827411 0.008872802 -0.10257326 -0.014204383
0001c0 6a 9b 74 bc 7d 85 21 3c b4 cd ec bc 44 3f c5 3c
       -0.014929632 0.009858486 -0.02890668 0.024078019
0001d0 1a 31 fa bc f9 7a c0 3c 31 28 7b bb e8 92 45 3d
       -0.030540992 0.023496138 -0.0038323516 0.048235804
0001e0 fd 65 16 bd f6 d1 67 3d a1 bc e4 3c ce f3 a8 3c
       -0.036718357 0.05659672 0.027921977 0.020624068
0001f0 cc 90 7b bd 4e b8 61 3d 26 21 a6 bd 48 22 ba 3d
       -0.061417386 0.055107407 -0.08111791 0.0908857

dnn/hiddenlayer_0/MatMul f4 [128, 12]
000000 7c f3 82 3e 20 56 4c 3c 4e b0 a5 3d 79 63 2c 3d
       0.2557639 0.012471706 0.08090268 0.042087052
000010 9c 87 b7 bb d8 d2 15 be a2 35 b9 bb c9 e9 2f be
       -0.0056008827 -0.14631212 -0.0056521455 -0.17179026
000020 45 62 23 be 05 db 08 be d6 8d 2d 3c df 6c af 3d
       -0.15955456 -0.133648 0.010592898 0.085656874
000030 10 27 42 be e7 49 27 3e 1b ff c2 bc 73 f7 85 3c
       -0.18960214 0.16336785 -0.023803284 0.016353345
000040 11 46 29 3e 96 ec c6 3d f7 35 bc bd df 53 45 bc
       0.16530634 0.09713094 -0.091899805 -0.012043922
000050 93 95 15 be fb f2 c8 bc 08 e0 22 3e 12 80 d7 bd
       -0.1460784 -0.024529925 0.15905774 -0.10522474
000060 be 84 bf 3d 01 f9 38 be 22 64 7a 3e 99 a2 fc bc
       0.093514904 -0.18063737 0.2445226 -0.030839251
000070 94 ec 3f 3e 62 31 5f 3e e0 13 9a be 12 c9 ac 3d
       0.18742591 0.21796182 -0.30093288 0.084367886
000080 96 51 0b 3e f8 ee f7 3c 16 6b 0d 3d dd da 08 3d
       0.13605341 0.030265316 0.034525953 0.03341185
000090 a1 9a 7f bd 0e b9 a2 3d 6c 24 6d 3e 06 2f ab bd
       -0.062403325 0.07945453 0.23158425 -0.083585784
0000a0 df dd c8 3d 0d 71 18 3e af 7f 70 be 6d 7f 52 3e
       0.098079436 0.14886875 -0.23486207 0.20556422
0000b0 88 5e c0 3d 08 8a 32 3c 18 d9 cc 3d 15 aa 6a be
       0.093930304 0.010897167 0.10002345 -0.22916444
0000c0 38 29 9d bd 55 ff bb 3c 01 be 27 be 48 2c 10 3d
       -0.076738775 0.0229489 -0.16381074 0.03519848
0000d0 17 54 95 3c c9 e3 b2 3d 2f 2e 08 3d 2d 6a d6 3d
       0.018228574 0.08734853 0.03324717 0.1046947
0000e0 be c0 82 bc c1 ea 0c 3e 06 34 96 3d f1 25 8f be
       -0.015961047 0.13761427 0.073341414 -0.27958634
0000f0 7e 14 14 be 62 d2 dc 3d 4f 7b 59 3e b4 56 2d bd
       -0.14460942 0.10782315 0.21238445 -0.042319015
000100 00 a4 93 3d 03 0a 30 3e 85 10 41 bb cb 70 db 3d
       0.07209015 0.17191319 -0.002945931 0.10714873
000110 5a 39 2c 3e 0e 13 0d 3e ee 22 bd 3c e6 a6 48 bc
       0.16818753 0.137768 0.023087945 -0.012246823
000120 f4 12 35 3e f4 4e 31 bd 13 04 f0 3d af 82 af bc
       0.17683011 -0.043288186 0.11719527 -0.02142462
000130 29 f4 ce bd da c1 96 3c 28 a0 00 be 83 6c 38 3d
       -0.101051636 0.018402983 -0.12561095 0.04502536
000140 7f b1 85 3c 0f ac 11 3c 97 4c 0e be 78 fe a9 bd
       0.016319988 0.00889112 -0.13896404 -0.08300489
000150 0e cb b5 bd 7a 66 64 3d 9e 8a 76 3e 0c 17 30 3e
       -0.0887662 0.05576179 0.24076316 0.17196292
000160 5e db 3a be 3d 5d 92 3d 4d 59 50 bd 34 12 1e 3e
       -0.18247744 0.0714669 -0.050866414 0.15436631
000170 f1 4e 3f bd 2e c2 a9 bd 1d 49 dc bd 25 78 50 3e
       -0.046706144 -0.0828899 -0.10756133 0.20358332
000180 46 91 07 3d 12 ab d1 bd dd 09 03 be dc a7 b4 bc
       0.033097528 -0.10237707 -0.12796731 -0.022052698
000190 03 b8 be 3d 9f b3 18 3e aa cb 95 be d9 31 88 3c
       0.09312441 0.1491227 -0.29256946 0.016625332
0001a0 e6 ef 46 3e be 1d ed 3d 8e c5 a9 3d 59 06 26 3d
       0.19427451 0.115779385 0.08289634 0.040533397
0001b0 a0 61 c5 bd 08 5a 2c 3c fc cc f0 bd d6 34 a5 3d
       -0.09637761 0.010519512 -0.11757848 0.08066718
0001c0 57 73 74 bc 1a 26 e9 bd 19 e4 c6 3d 3f a6 35 3e
       -0.014920077 -0.113842204 0.09711475 0.17739199
0001d0 42 e2 27 3b 6f 78 b7 bd 70 be a1 bc e6 4d 62 3e
       0.0025617038 -0.08958518 -0.019744128 0.22100028
0001e0 56 61 11 3e 29 0e 45 3d 12 ef b5 3d b1 df c5 bd
       0.14197287 0.048109207 0.0888349 -0.096618064
0001f0 fc 78 f1 bd e8 c0 28 be d1 d2 f4 3d 83 09 06 be
       -0.11790654 -0.16479838 0.119542725 -0.13089566
000200 2f b9 b2 3d 93 d0 b1 3d 0e 60 2b 3e 8d b6 20 3e
       0.08726727 0.086823605 0.1673586 0.15694638
000210 70 23 1e 3c 2d 95 de 3d ee 87 41 3d 77 b6 cf 3c
       0.009652004 0.10868297 0.047248773 0.02535556
000220 f1 07 1c be 90 90 58 bd a0 f4 0d 3d df 73 06 bd
       -0.15237404 -0.05287224 0.03465712 -0.032825347
000230 2d 21 4b be 11 26 21 be 6d 90 ab bd 63 f9 74 3e
       -0.19836874 -0.15737177 -0.083771564 0.23923258
000240 bd e1 66 bd f7 80 05 bd b1 0b d3 3d 34 4b 8e bc
       -0.056367625 -0.032593694 0.10304964 -0.017369844
000250 22 0b 4a be 1b 40 98 3d db cc a6 3c a6 8b 32 be
       -0.1973081 0.07434102 0.020361355 -0.17436084
000260 12 96 f9 3d 65 ee 09 be 12 b0 30 3e 10 3d 2c bd
       0.12186827 -0.13469847 0.17254665 -0.04205042
000270 04 c9 b3 3d 34 b1 ee bd b5 a4 1e be 86 e8 0c 3e
       0.08778575 -0.116548926 -0.15492518 0.13760576
000280 a7 30 1b 3e 66 e1 a6 bd 08 1d 03 3e 8e c4 1a 3d
       0.15155278 -0.0814846 0.12804043 0.037785105
000290 59 ed 48 bd 9c 73 03 be 2b 4a 71 bc 13 5c e7 bd
       -0.049054477 -0.1283707 -0.014727156 -0.11296859
0002a0 12 0b ea bd 05 6e 21 bd 5e 1d 4f bd 48 bd 63 3d
       -0.11427893 -0.039411563 -0.050565116 0.055600435
0002b0 c3 aa 29 3e cf 5a b1 3d 90 dd 52 be 45 56 f4 3d
       0.16569047 0.086598985 -0.20592332 0.11930517
0002c0 c6 3c a8 3b 6c 36 65 3e 9f 42 12 3e a1 c0 a9 3d
       0.005134198 0.22384042 0.14283226 0.08288694
0002d0 ec 30 51 3e 85 da 46 be ab cc b9 bd 21 d4 73 3d
       0.20428818 -0.19419296 -0.090722404 0.059528474
0002e0 a0 61 c6 bd 27 41 b4 bc a6 78 34 3e 61 0f 3a bc
       -0.09686589 -0.022003723 0.17624149 -0.011356206
0002f0 3b 97 3f bd a3 a5 ed bd 1a 76 ad 3d 6a 6d 61 bd
       -0.046775084 -0.11603858 0.08469792 -0.055035986
000300 61 4a fb 3c 44 df 30 3e f6 5f 60 be e9 22 48 3e
       0.030675115 0.17272669 -0.21911606 0.19544567
000310 f4 ea 3f be 0e 9d 16 be 65 cf 10 3e 40 86 9c bd
       -0.18741971 -0.14708349 0.14141615 -0.07642794
000320 7b 52 37 3e 3b a9 0e bd 4a 27 75 3c 66 f0 ff bd
       0.17902558 -0.03482936 0.0149629805 -0.12497024
000330 dc ee 16 be 2e 83 25 3e 4a e0 48 3b d3 fa 26 bc
       -0.14739555 0.16163322 0.0030651265 -0.010191637
000340 72 d1 99 bd a6 41 7b 3d 56 13 be 3d ec 7a 67 3e
       -0.07510652 0.061341904 0.09281032 0.22605485
000350 a4 24 6e bd 2c fb 4a bd 23 6e 0d 3e f4 8f 1f 3d
       -0.058140412 -0.049555942 0.13811545 0.038955644
000360 5d 07 28 be 46 38 57 be 67 76 9a bc ab 7d ed 3d
       -0.16409059 -0.2101756 -0.018855287 0.11596235
000370 2f 61 64 bd 67 20 57 be 12 16 a3 3c 45 c9 08 be
       -0.055756744 -0.21008454 0.019907985 -0.13358028
000380 47 bb 28 bc c8 53 20 3e 15 03 95 3d 56 7e 8e 3e
       -0.010298557 0.1565696 0.072759785 0.27830762
000390 5b 4b 42 bd ee 11 7c 3c 8b 8e a9 3d fe 09 86 3c
       -0.047435146 0.015385134 0.08279141 0.016362187
0003a0 f0 49 4b bd 0e 0b 00 3e fe 06 4e be 12 a9 a8 bc
       -0.04963106 0.12504217 -0.20119855 -0.020588432
0003b0 67 53 95 b9 75 ab 41 3e 18 a6 07 be 8c 29 9d 3d
       -0.00028481634 0.18913062 -0.13246953 0.0767394
0003c0 ad 5c 3c 3e d0 1d 00 3e 0b 57 1e be 33 a4 22 be
       0.18394728 0.12511373 -0.15462892 -0.1588295
0003d0 5d 32 44 be 85 ad 3e bd f9 2b 92 3d 49 ee 0e be
       -0.19159837 -0.0465522 0.07137293 -0.13958086
0003e0 63 dd b9 3d 6f 38 5e bd fe ef 07 3e 70 09 2d 3e
       0.09075429 -0.054253038 0.13275144 0.16898131
0003f0 22 44 28 bb 59 7d 04 be a0 99 d5 3d 9d b1 03 be
       -0.0025675376 -0.12938441 0.10429692 -0.12860723

dnn/hiddenlayer_1/MatMul f4 [64, 128]
000000 79 94 ab bd 9a 0b ac bd 6c 6e 35 3c 63 ec 82 3c
       -0.08377928 -0.0840065 0.01107369 0.015981859
000010 2e a2 ab bd 8b 06 07 bd 98 ae 66 bd b4 d4 3e be
       -0.08380543 -0.032965224 -0.05631885 -0.18635827
000020 80 86 10 3e c8 ab f1 3d 87 05 17 be 7d 3c 97 3d
       0.14113808 0.11800343 -0.14748202 0.07384584
000030 b1 b1 32 3e 7d 47 68 3d 21 6a f2 bc 1a 9d 19 be
       0.17450596 0.0567088 -0.029591622 -0.15001336
000040 60 ad 0a be 51 d9 ed bb b7 6a ef 3d 00 38 de 3c
       -0.135427 -0.007258572 0.11690276 0.027126312
000050 ab 8d da 3a df 7d 8e bd 61 d9 3b be c8 fc 3e 3e
       0.00166743 -0.06957602 -0.18344642 0.18651116
000060 5c 2f 14 3c 83 23 30 3d cd 9e 56 bd 0e 58 06 be
       0.0090444945 0.043002617 -0.052397538 -0.13119528
000070 13 46 d6 3b 8b 5e 2f bd 60 45 74 bd a5 39 4f be
       0.006539115 -0.042814773 -0.059636474 -0.20236833
000080 2b a7 4d 3c 9e ab 7e bb 40 99 44 3e 19 45 af bc
       0.012552063 -0.0038859616 0.19199085 -0.021395253
000090 c1 c3 ab bb ab ce de 3d 6b a1 e7 bd 59 2a 31 3e
       -0.0052418415 0.108792625 -0.11310085 0.1730131
0000a0 f8 85 a5 bd 19 46 8d bd 22 93 15 3c f5 f1 21 3d
       -0.08082193 -0.06898136 0.0091293175 0.03953739
0000b0 6f ba 03 3e 2a 81 9e bd 2b cb 80 bd 27 0c 0d be
       0.12864088 -0.0773948 -0.06288751 -0.13774167
0000c0 09 2b 24 be 99 c2 b1 bd c1 5e a9 3d 10 0b 30 3d
       -0.16032042 -0.08679695 0.08270026 0.0429793
0000d0 af 61 45 3e 31 f0 88 bc 9d be 0a 3c 49 ea f5 3d
       0.19275545 -0.016716095 0.008468297 0.12007577
0000e0 81 25 87 3d da f8 8f 3d fc 27 43 3d be 50 ed 3a
       0.0659895 0.070298865 0.047645554 0.0018105728
0000f0 98 a9 07 3e d4 fe 24 3e 7f 6c a7 bd 44 a9 f8 bd
       0.13248289 0.16112834 -0.08174991 -0.1214166
000100 8a 8d f6 3d d7 b0 40 bd 35 73 4b 3d 00 b4 a7 bd
       0.12038715 -0.047043648 0.049670417 -0.08188629
000110 76 1b 5d bc 17 a8 db 3d 8d 93 8e 3d 5a 21 01 3e
       -0.013495317 0.1072542 0.06961737 0.12610379
000120 7d 6f 9b 3d 30 9b 42 bd b8 1b 27 3e e6 b5 e2 3d
       0.07589624 -0.04751128 0.16319168 0.110698506
000130 50 c4 1a 3d ed 22 d4 3d 82 aa 33 bd 45 8e a8 bd
       0.037784874 0.10358224 -0.04386378 -0.08230261
000140 dc cf 3b be 32 48 30 3e c1 be 1d 3e 95 02 ee 3d
       -0.18341011 0.1721504 0.15404798 0.11621586
000150 a1 71 02 3d a0 12 16 bc 8c db 17 3e 57 0c 82 bd
       0.031846646 -0.009159714 0.14829844 -0.0635001
000160 3c 5d 15 3e 52 55 d9 3d 6f 88 da bd 35 00 97 3c
       0.14586347 0.10611977 -0.10670554 0.018432716
000170 0b 32 d0 bb 2d 1c 19 bd 7b 86 be 3d 51 61 c0 39
       -0.006353622 -0.037380386 0.09302994 0.000366936
000180 11 01 0b 3e c2 39 39 3e d3 b9 93 bd 59 ed 88 3b
       0.13574626 0.18088439 -0.072131775 0.0041786847
000190 8c 2d 26 be 88 20 95 3d 09 15 d2 bc 23 2b 6e 3d
       -0.16228312 0.072815955 -0.025644796 0.058146607
0001a0 cb 5e b1 3c 6e e7 48 bd 89 83 3a 3e c0 6a b7 3d
       0.021651646 -0.049048834 0.18214239 0.08955908
0001b0 63 75 0b 3e 49 15 b7 bd cb d0 2c be cd 55 18 be
       0.13618998 -0.08939607 -0.16876523 -0.1487648
0001c0 38 d6 d8 bd 42 32 de bd 5d 51 35 3e 81 69 4d bd
       -0.10587734 -0.1084943 0.17706819 -0.050149444
0001d0 04 50 1b be 01 68 36 3e a5 48 e9 3d a1 84 5c be
       -0.15167242 0.17813112 0.11390809 -0.21534969
0001e0 07 96 cf bd 42 3e dc 3c c2 9b 4a 3d 02 2d c4 bc
       -0.10136037 0.026885156 0.04946495 -0.023947243
0001f0 26 58 c6 bc 33 2f 33 be 18 93 c5 3d 4b c2 05 be
       -0.024211954 -0.17498474 0.096471965 -0.13062398
000200 4e 81 c9 3d eb 7a f3 bd ee 8f 73 bc 3b 77 4e be
       0.09839116 -0.11888679 -0.0148658585 -0.2016267
000210 b4 9a e9 bd cf cb 07 3e af 00 8a 3d 70 af b4 bd
       -0.114064604 0.1326134 0.06738412 -0.088225245
000220 9c 80 af 3d 8a c4 db 3c c1 e0 f1 bd 06 5b f3 3c
       0.08569452 0.026827116 -0.118104465 0.02970649
000230 a6 4f 33 be ad 4f 96 3d 69 94 0e bd fc 69 34 be
       -0.17510852 0.07339416 -0.034809504 -0.17618555
000240 a2 45 fc bd 46 99 4a 3d 0c 88 d2 3d 0d b3 8e 3d
       -0.12317969 0.04946258 0.10279855 0.06967745
000250 da 8c 9d ba 85 39 80 3d 05 1f e6 bd 87 32 0e 3e
       -0.0012020126 0.06260971 -0.11236385 0.13886462
000260 15 9e ef bd 5c 00 2e be f7 dc d7 bd 84 fb fd bd
       -0.11700074 -0.16992325 -0.105401926 -0.124014884
000270 16 df 80 bd ee 5c de bd 0c ca ac bd 14 39 d4 3c
       -0.0629255 -0.10857569 -0.08436975 0.025906123
000280 b0 86 d4 3d 71 4f 04 3d 3d d2 06 3e 78 17 d3 bd
       0.10377252 0.032302324 0.13166137 -0.10307211
000290 e5 e9 10 3d 59 13 f3 3d 32 68 ab bc 62 b9 50 3d
       0.03537931 0.11868925 -0.020923708 0.050958045
0002a0 4d 81 f3 3d d5 ec 86 bd 3a 87 d0 3d 4b 4c 81 3b
       0.118898965 -0.06588141 0.101820424 0.0039458624
0002b0 56 e0 1d 3d e9 e1 32 3e ed 2b 08 3e 63 36 69 bd
       0.03854402 0.1746899 0.13298006 -0.056936633
0002c0 00 5b 06 3e 76 57 e9 3d a0 4c 49 3e 30 39 bf bd
       0.13120651 0.11393635 0.19658136 -0.093370795
0002d0 1e c1 92 bd 22 34 36 be 11 8a a1 3c a6 e9 3a 3d
       -0.071657404 -0.17793325 0.019719156 0.04563298
0002e0 6f 2b 66 3c ef 3b 1f 3c fa 20 33 3d d9 45 bd bd
       0.014048441 0.009718879 0.04373262 -0.09241838
0002f0 83 1f fa bd 9c 55 da 3d 5c 11 d4 bc 49 a7 22 be
       -0.12213042 0.1066086 -0.025887184 -0.15884127
000300 f4 a3 b5 bc 33 70 e2 ba b6 4f 37 be c7 91 5b 3d
       -0.022172906 -0.001727587 -0.17901501 0.05360582
000310 d4 85 a3 bc a3 3e f7 3d 93 48 ad bc ea 4b a6 3d
       -0.019961275 0.12072494 -0.02115277 0.08119948
000320 bf 3b 58 3d c6 95 d5 3d 17 6b 13 bd 3b 69 c1 3d
       0.052791353 0.10428958 -0.0359908 0.09443899
000330 32 37 e7 3d 69 64 fc 3d 39 67 03 be e9 0a fe 3b
       0.112898245 0.12323839 -0.12832345 0.0077527654
000340 5c 75 26 3e ad ed 05 3d 55 42 6c 3d 56 4f 3a 3d
       0.16255707 0.03269737 0.057680447 0.045485817
000350 dd 99 61 bd b0 a6 1f be e8 71 51 bc 78 6c 0e be
       -0.055078376 -0.1559093 -0.012783505 -0.13908565
000360 fa bf b4 3c f3 a1 b0 3d b1 07 2f be ec 07 25 3d
       0.022064198 0.08624639 -0.17092778 0.040290758
000370 dd fa 2d be 59 b6 3a 3c 60 6d f8 3c 7a d7 07 be
       -0.16990228 0.011396014 0.030325592 -0.13265792
000380 ab 36 0f be ce 49 05 be 6d bf 20 3e de ac 46 be
       -0.13985698 -0.13016436 0.15698023 -0.19401881
000390 8d e7 9f bd 8c ca d4 bd 7c 9e 9f 3c 3b c0 59 3e
       -0.07807837 -0.10390195 0.01948475 0.21264736
0003a0 09 89 46 bc 46 a3 34 be 7b 4d 8d 3d 55 af f8 bb
       -0.012117633 -0.17640409 0.06899544 -0.0075892606
0003b0 37 51 7d bd ca f1 4c 3a 6f ec 94 3c e2 ae 67 3d
       -0.06184503 0.0007818012 0.018179147 0.056563266
0003c0 bb d2 20 3e 30 44 04 be 29 5a 01 3e 1c 0d e2 3c
       0.15705387 -0.12916636 0.1263205 0.027594142
0003d0 0c 07 d3 3c 27 2f 21 be 68 d7 00 be 8f 2a 20 bd
       0.025760196 -0.15740643 -0.12582171 -0.039103087
0003e0 ae b8 59 3d 87 2d 20 bd c3 e8 41 be 65 fc 53 bd
       0.05315464 -0.03910592 -0.18936448 -0.051754374
0003f0 bd ae cd 3d 27 a5 d6 3d 0e 54 2e 3e f5 a1 25 be
       0.10043094 0.10480719 0.17024252 -0.16175063

dnn/logits/MatMul f4 [1, 64]
000000 a7 44 a8 3e ec 9e 34 be cd 5f ac 3e 28 95 d4 3b
       0.32864878 -0.17638749 0.3366684 0.0064875074
000010 67 c2 2c bd b4 50 1f 3e 6e 8b d8 3e 49 ff 07 bd
       -0.042177584 0.1555813 0.42293876 -0.033202443
000020 ac 40 31 3e bc 55 08 bd 6d fe a4 3e 3e 52 91 be
       0.17309827 -0.033284888 0.3222536 -0.28383058
000030 41 8e 46 be 24 47 21 be 0d ad ae 3c 08 ca 87 3e
       -0.19390203 -0.15749794 0.021322751 0.26521325
000040 9e e7 a3 3e 62 10 b6 3e 0f e8 a5 bd 4d ca b5 3d
       0.32012647 0.35559374 -0.08100902 0.088764764
000050 71 c9 96 3e f8 a3 52 be c3 0f 84 be 6c 31 a7 3e
       0.29450563 -0.20570362 -0.25793275 0.32654893
000060 7b d3 c6 3e f7 11 83 be 97 eb cc 3e ea c9 06 be
       0.38833222 -0.25599644 0.4002349 -0.13162962
000070 36 2f ca bd 65 61 a9 bc 33 58 55 be 60 2c 97 be
       -0.09872286 -0.020676324 -0.20834427 -0.29526043
000080 d2 73 a0 be 64 f6 95 bd 8b 53 fd bc 61 84 96 be
       -0.31338364 -0.07322386 -0.030923625 -0.29397872
000090 2c ac 6a 3d e3 30 4b be b1 af a9 3e a3 2e b0 3d
       0.057293102 -0.19842868 0.33141854 0.08602645
0000a0 c7 8b 38 3e d7 8a 3e 3e 9a f6 8c 3e 6b 4f 8c be
       0.18022071 0.1860765 0.27531892 -0.2740434
0000b0 9f 44 83 be 69 16 b2 3e 97 fc f0 3d 61 55 16 3e
       -0.2563829 0.34782723 0.11766928 0.14681007
0000c0 15 76 a9 3d 65 0b 37 be d0 26 86 3e d6 85 ac 3e
       0.082744755 -0.1787544 0.26201487 0.3369586
0000d0 e0 72 ea bc 30 d3 32 be 20 e7 76 3c 05 86 8d be
       -0.02861923 -0.17463374 0.015069753 -0.2764131
0000e0 ac 0f aa be 62 a2 92 be 47 c0 5f 3e 75 52 51 3d
       -0.33215082 -0.28639513 0.21850692 0.051104028
0000f0 e6 90 35 3e b5 b0 4f be eb e8 e1 3d 42 c7 a9 bd
       0.17731056 -0.20282252 0.11030754 -0.082899585
